outputs/run_prompt_t5-small_vt20_s42_20251031T043615Z/checkpoint-8419/adapter_model.safetensors (safetensors, 82040 bytes, 1 tensors)

prompt_embeddings f4 [40, 512]
00000000: 0314 d43f 7699 b03f 6631 7a3f 325f ddbf
00000010: a013 073f 5a1b adbf 6c60 293e c521 babf
00000020: 0833 4fbf d3ab dd3f 9501 71bd 944f c5bf
00000030: 66f2 4cbf 095e 18bf aa20 6dbf 3419 d03e
00000040: e9d5 b73f e1a0 8fbe a076 97be ab3a 6d3f
00000050: 0ec9 00bf cd4d 7b3f 0e0b 513f f185 da3f
00000060: 8032 b33f 2bc0 ae3f 8519 4b3f 454c 9e3f
00000070: 783c 82be c276 9ebd 6722 ccbd 7065 6e3f
00000080: 829c 9ebf fc91 12bf 2978 94be eb28 0e40
00000090: 31b7 3f3f 27cf 3ebf 641a 893e 820d 87bf
000000a0: a5d7 edbf f9c3 4e3f fba6 8abf 4fdd b7bd
000000b0: ab4b 81bf cea9 f03f e99c b2bf 230a 3dbf
000000c0: 5465 7bbf 1d9b a9be aa70 953d 5fa4 e63e
000000d0: 57e1 bcbe a2b6 873f 3858 35bf e7d9 66bf
000000e0: 447a babf 99bc b53e d2e2 b73d ea9d 143f
000000f0: a448 8fbe 80af d13f 78d9 92bf b593 9d3f
00000100: 5b90 bb3f 5b74 8d3f 87e7 0540 5cef 303f
00000110: 2127 ffbc 0b8c 88be a7df 7dbf 601a a03f
00000120: de98 f0be 1a98 1e3f d47a 613e 5a09 b43e
00000130: c950 003f a8f3 ddbe 50c4 14c0 b743 5ebf
00000140: c848 f23e e8b1 f0be 1065 a0bf 83da 1fbf
00000150: db3b 463f fd2f 353f b66c 6f3f 1510 563e
00000160: 71a5 753f 8385 18bf 7d9b 37bf 0304 1a3f
00000170: dae3 e3bf dcac 57bf b4d7 9a3f 804b 1b3f
00000180: 0bbc 2dc0 2bb4 cb3e 4474 393f d973 993d
00000190: 3de8 363f 670d 413f 29da 8b3f 2b4f e8be
000001a0: be15 a0be bd2e 2e3f 1378 143f e445 513e
000001b0: b1ba 003e a8d0 933f 485c 903e 1744 cdbe
000001c0: acb6 afbf 36e9 07be b040 53bf 87c5 a63e
000001d0: c88b 143f 3d4b 5e3e 8fb3 52be 02cd 373f
000001e0: 78e5 ddbe ad4c 2b3d 9fcd 633e 107d 583f
000001f0: 6a82 9c3f 8e2f f33c 7a5b 6a3f 2cc6 403f
00000200: 9c66 f53f 2fd4 933f 56fa c1bf f548 6fbf
00000210: 9783 6e3d 13d6 c13f 0efb 013f c85b 2a3f
00000220: 447a b93f 15e6 7dbd 791a 03c0 9c10 653f
00000230: cab1 55be 1d04 a83f 381c ffbe 938a 113f
00000240: e37a 92bf 2760 793f ad29 a73f cd74 ca3f
00000250: 1259 063e 5ef1 92bd daa6 48bf faf2 723e
00000260: c199 2f3e ed13 423f ffd3 66be 6cc4 ba3f
00000270: 7f1d 13c0 7f11 08bf b045 90bf 916b 593f
00000280: defc fbbf 57cf 943e 3e8f 3f3e e5ba febe
00000290: fe66 ed3e debf 49bf 2a6a 793d 35d3 babf
000002a0: d473 e5bf 2f8e 983f 4882 a63f 636d 713e
000002b0: 5821 a3bf f31a 0e3f 55bb 413f 55b1 0540
000002c0: 8bdb 503e 3d1a 7f3d e19f 60bf 0b82 a6be
000002d0: c056 58bf 02c7 bebf 18b6 95bf 6197 15bf
000002e0: 6616 fa3c cc71 95bf d851 e8bf fd95 d33b
000002f0: 9d67 9a3f 0ed8 84be d065 383f b17b 733f
00000300: 7466 cd3f 3355 95bf 64f1 543f 9178 7abe
00000310: da96 74bf b9aa 11be 0642 263f 763a a13f
00000320: 3809 d33e 1745 0f40 929f 11bf 042e 46bf
00000330: 5c5c 213e 7a36 8a3f 1462 993f 25b6 0f3f
00000340: bae7 11bf 96d9 69bf 4c78 21bf 232f 07bf
00000350: ed9b 65bb 4211 a73e 3788 1cbe 9636 f4bf
00000360: f22c d8be 696c 843f b498 01c0 17c6 cc3f
00000370: d16d 253f aed8 e4be e03f 8b3f d819 d03f
00000380: 7c67 e5bd e879 cb3f 343b 15be 41fb 8bbf
00000390: e46b 34be 2230 ee3c e63c c93e 3c95 e53f
000003a0: dec7 983d 0d93 96bf e110 07c0 854e 48bf
000003b0: 8c1a d2bd 1a32 e0bd 209f c83e bdc6 4eba
000003c0: 9e95 93bf 812e a63e 4f7c 94be 996b 9c3e
000003d0: 5b7e 3fbf bb2d 17be b119 40be 9d19 ab3f
000003e0: c443 a83f c82e 22bf 0154 b53e edf6 083f
000003f0: f406 0d3f 28ad f03e f640 113d 5b83 d33e
1.6568607 1.3796833 0.97731626 -1.7294676 0.5276432 -1.3523972 0.16540688 -1.4541556
-0.8093724 1.7318062 -0.0588394 -1.541491 -0.8005737 -0.59518486 -0.92627966 0.40644228
1.4362155 -0.28052428 -0.2958269 0.92667645 -0.50306785 0.9816559 0.81657493 1.7072126
1.3999786 1.3652395 0.79335815 1.2367026 -0.2543676 -0.07737495 -0.09967499 0.9312353
-1.2391512 -0.57254004 -0.28997925 2.2212474 0.748889 -0.7453484 0.26777947 -1.0550997
-1.8581434 0.8076778 -1.0832208 -0.08977758 -1.0101217 1.880182 -1.3954135 -0.7384359
-0.9820149 -0.33126155 0.072968796 0.4504728 -0.3689067 1.060261 -0.70837736 -0.9017624
-1.4568563 0.3549545 0.089788094 0.5805346 -0.27985108 1.6381683 -1.1472616 1.2310702
1.4653429 1.1051134 2.0922563 0.69115233 -0.031146588 -0.26669344 -0.9916939 1.2508049
-0.46991628 0.6195084 0.22019511 0.35163385 0.5012327 -0.43349957 -2.324482 -0.86822075
0.47321153 -0.47010732 -1.2530842 -0.624428 0.7743508 0.7077635 0.93525255 0.20904572
0.9595557 -0.5957872 -0.7172163 0.6016237 -1.780391 -0.8424814 1.2097077 0.6066208
-2.7146022 0.39785895 0.7244303 0.07492799 0.7144812 0.75411075 1.0925952 -0.453729
-0.31266588 0.68040067 0.5799572 0.20436817 0.12571217 1.1548052 0.28195405 -0.4009101
-1.3727622 -0.13272557 -0.8252058 0.32572576 0.5802579 0.21708389 -0.20576309 0.7179719
-0.43339133 0.04182117 0.22246407 0.8456583 1.2227299 0.029685762 0.9154583 0.75302386
1.9171939 1.1549128 -1.5154521 -0.934707 0.058230963 1.5143455 0.50773704 0.665463
1.4490438 -0.061987 -2.0484908 0.8947847 -0.20868602 1.3126255 -0.49826217 0.5685207
-1.1443752 0.9741234 1.3059593 1.5816895 0.13119915 -0.071749434 -0.78379595 0.237255
0.17148496 0.75811654 -0.22541808 1.4591193 -2.2986753 -0.53151697 -1.1271267 0.8492976
-1.9686544 0.29064438 0.18706986 -0.49751964 0.4636764 -0.7880839 0.06089226 -1.4595705
-1.7925973 1.1918391 1.3008509 0.23576884 -1.2744551 0.5550987 0.7567647 2.0889485
0.20396249 0.062280882 -0.87743956 -0.3252109 -0.8450737 -1.4904482 -1.1696196 -0.5843411
0.030528259 -1.1675353 -1.8149977 0.006457089 1.206287 -0.25946087 0.72030354 0.95110613
1.6046891 -1.1666626 0.8318083 -0.24460055 -0.9554268 -0.14225282 0.64944494 1.2595966
0.4121797 2.238592 -0.5688411 -0.77413964 0.15757889 1.0797875 1.1983056 0.56137305
-0.5699421 -0.91347635 -0.63074183 -0.528063 -0.0035035566 0.32630354 -0.15286337 -1.9079158
-0.4222179 1.0345584 -2.0249453 1.5997952 0.6462069 -0.44696563 1.0878868 1.6257887
-0.11201379 1.5896578 -0.14573365 -1.0936052 -0.17619282 0.029075686 0.39304274 1.7936168
0.07459997 -1.1763626 -2.1104052 -0.7824481 -0.1025897 -0.10947056 0.39183903 -0.00078878907
-1.1530035 0.32457355 -0.2900109 0.3055084 -0.7480218 -0.14763539 -0.187598 1.3367192
1.314568 -0.6335263 0.35415652 0.5350178 0.55088735 0.47007108 0.035462342 0.41311154
